test.model (torch, 2383 bytes, 4 tensors)

l1.weight f4 [8, 16]
-0.29469845 -0.17071041 -0.1995068 -0.34044513 0.18021771 0.25021976 0.08192608 0.07356274
-0.3405194 0.09970652 -0.17022406 -0.3293422 0.68779624 0.41813305 0.5873458 0.13004488
-0.16831571 -0.31472117 0.4790625 0.08379218 -0.16208914 -0.28636104 0.3999268 0.27806655
-0.21560842 -0.2919103 0.46377787 0.20133051 0.07586018 -0.2697279 0.657395 0.46274203
-0.2820393 -0.3752546 -0.38134748 -0.38696408 -0.26201683 -0.24510287 -0.27184677 -0.38623542
0.5795966 0.28631014 0.4490143 0.4733134 0.3421248 0.39926928 0.3482241 0.5786554
0.24380486 0.009724079 0.24627906 -0.32448688 -0.12030754 -0.30733746 0.03695136 -0.37632927
0.13848546 0.16448745 0.47731227 -0.30735117 0.27808446 -0.111605816 0.36236757 -0.15518348
0.15217605 0.3939643 0.02177172 -0.1981622 -0.06987684 0.48678657 -0.09806548 -0.10355979
-0.124964 0.016076602 -0.05170797 -0.13353166 -0.1780068 -0.002266944 -0.17646417 0.41534317
-0.33362606 -0.15303765 0.21468087 0.5030708 -0.308131 -0.12949719 0.30115646 0.24710599
-0.2889264 -0.04084298 0.3237373 0.34373945 -0.31562772 -0.09761359 0.25851613 0.1613617
-0.3381783 0.13449705 -0.3284653 0.09025302 -0.40726992 -0.13543746 -0.3938791 0.25258604
-0.11293765 0.5676599 -0.03868372 0.32750827 0.0033856244 0.46469113 -0.031223956 0.22570798
-0.28996792 -0.3001893 -0.40425143 -0.35264656 0.2258039 0.15534033 0.37578514 0.5028868
-0.34124535 -0.37430492 -0.3119902 -0.40351564 0.01939318 0.30104992 0.10200412 0.33461124
00000000: b7e2 96be b6ce 2ebe 834b 4cbe d34e aebe
00000010: fe8a 383e ce1c 803e dcc8 a73d 10a8 963d
00000020: 8f58 aebe ef32 cc3d 374f 2ebe 8a9f a8be
00000030: 6a13 303f 8915 d63e 4b5c 163f 7c2a 053e
00000040: f45a 2cbe 2223 a1be ae47 f53e 3c9b ab3d
00000050: b2fa 25be ea9d 92be 35c3 cc3e bd5e 8e3e
00000060: 74c8 5cbe 4475 95be 4b74 ed3e 9629 4e3e
00000070: 955c 9b3d c619 8abe 0a4b 283f 86ec ec3e
00000080: 7567 90be 5f21 c0be fa3f c3be 2820 c6be
00000090: 1227 86be 3ffc 7abe 802f 8bbe a6c0 c5be
000000a0: 7160 143f 3e97 923e 34e5 e53e 2256 f23e
000000b0: fb2a af3e 066d cc3e 6e4a b23e c322 143f
000000c0: fba7 793e be51 1f3c 9430 7c3e 2523 a6be
000000d0: cd63 f6bd 565b 9dbe 4f5a 173d 3bae c0be
000000e0: 22cf 0d3e 666f 283e 4662 f43e 225d 9dbe
000000f0: 1661 8e3e 9791 e4bd 3e88 b93e 6be8 1ebe
00000100: 0ad4 1b3e b0b5 c93e 9b5a b23c 08eb 4abe
00000110: 971b 8fbd 173c f93e 8ed6 c8bd 2817 d4bd
00000120: 20ed ffbd 14b3 833c bdcb 53bd 86bc 08be
00000130: 6a47 36be 0291 14bb 06b3 34be dca7 d43e
00000140: 09d1 aabe e7b5 1cbe 4dd5 5b3e 3fc9 003f
00000150: 59c3 9dbe e99a 04be 2e31 9a3e 5a09 7d3e
00000160: 29ee 93be f84a 27bd e5c0 a53e 9efe af3e
00000170: f599 a1be a2e9 c7bd 3a5c 843e 003c 253e
00000180: b525 adbe 98b9 093e 9b2c a8be 93d6 b83d
00000190: af85 d0be 1eb0 0abe 85aa c9be f552 813e
000001a0: db4b e7bd 2952 113f d272 1ebd 2aaf a73e
000001b0: 5ae1 5d3b ffeb ed3e 62c9 ffbc fe1f 673e
000001c0: ad76 94be 69b2 99be 0bfa cebe 178e b4be
000001d0: 2339 673e 8911 1f3e e966 c03e 30bd 003f
000001e0: b6b7 aebe e5a4 bfbe 2ebd 9fbe 9a99 cebe
000001f0: 72de 9e3c 3723 9a3e 89e7 d03d 2a52 ab3e

l1.bias f4 [8]
0.33909276 0.3087738 0.38550416 0.37332228 0.0944154 0.30391717 0.40536383 0.4201598
00000000: 919d ad3e 9917 9e3e cd60 c53e 1924 bf3e
00000010: dc5c c13d 089b 9b3e d98b cf3e 2f1f d73e

l2.weight f4 [4, 8]
0.23112962 0.061902646 1.0479485 0.14840227 -0.1759456 -0.009298851 0.32725024 -0.1817509
0.81712127 0.05543398 0.1553361 -0.46698123 0.045366798 0.0123383 -0.40770167 0.8167701
-0.2960962 1.0518463 -0.028457003 -0.2478153 -0.045946877 0.6690477 0.07307483 0.07538044
0.04954395 -0.27204543 -0.15701646 -0.7303683 0.81883633 0.47581595 1.0573076 -0.06252057
00000000: 3ead 6c3e a18d 7d3d 2d23 863f c4f6 173e
00000010: 152b 34be 355a 18bc 588d a73e e81c 3abe
00000020: dc2e 513f be0e 633d 6d10 1f3e 2a18 efbe
00000030: 89d2 393d 9526 4a3c 46be d0be d817 513f
00000040: ec99 97be e6a2 863f a91e e9bc 4bc3 7dbe
00000050: cb32 3cbd b646 2b3f 42a8 953d 0f61 9a3d
00000060: 99ee 4a3d 8a49 8bbe ecc8 20be 6bf9 3abf
00000070: 429f 513f 269e f33e db55 873f c90a 80bd

l2.bias f4 [4]
-0.17338277 0.13859251 0.018128077 0.23830709
00000000: 418b 31be 32eb 0d3e 5581 943c c606 743e
